anomaly_transformer_model.pth (torch, 8059 bytes, 20 tensors)

blocks.0.attention.Wq.weight f4 [2, 2]
00000000: 1271 af40 686d a240 02b9 c740 8647 a240
5.4825525 5.0758553 6.241334 5.071231

blocks.0.attention.Wk.weight f4 [2, 2]
00000000: dff7 b8c0 9cc5 213f bc83 c6c0 229f 7e3f
-5.7802577 0.6319215 -6.203581 0.9946157

blocks.0.attention.Wv.weight f4 [2, 2]
00000000: fe78 32be 46bd 28be 2c7a 1e3d db58 babe
-0.17428967 -0.16478452 0.03869073 -0.36395916

blocks.0.attention.Ws.weight f4 [1, 2]
00000000: c886 9c40 12a6 3640
4.891453 2.8538861

blocks.0.ln1.weight f4 [2]
00000000: 9743 4c3f d331 4c3f
0.79790634 0.79763526

blocks.0.ln1.bias f4 [2]
00000000: 351e 4cbe ce6a 4c3e
-0.19933398 0.19962618

blocks.0.ff.0.weight f4 [2, 2]
00000000: 9e02 69bc aea5 b43d 67fc f93e 74f9 fabd
-0.014221815 0.088206634 0.4882538 -0.12254611

blocks.0.ff.0.bias f4 [2]
00000000: a019 d2bd 7e8b 583f
-0.10258794 0.8458785

blocks.0.ln2.weight f4 [2]
00000000: b903 2b40 2d1c 2d40
2.6721022 2.7048447

blocks.0.ln2.bias f4 [2]
00000000: aec2 213f 130a e9bc
0.6318768 -0.028447187

blocks.1.attention.Wq.weight f4 [2, 2]
00000000: 9c1c d3bf 28df c53f c4c3 d83f 19c1 76bf
-1.6493106 1.5458727 1.6934743 -0.96388394

blocks.1.attention.Wk.weight f4 [2, 2]
00000000: 6f79 cd3f 89fa 9ebf 3e38 c3bf 686d 0240
1.6052684 -1.2420207 -1.5251539 2.0379276

blocks.1.attention.Wv.weight f4 [2, 2]
00000000: 03fa 02bf 8159 e5be 496f 3ebf 9b2a 17bf
-0.5116274 -0.4479485 -0.7438856 -0.59049386

blocks.1.attention.Ws.weight f4 [1, 2]
00000000: 73bc 36c0 5291 4e40
-2.855252 3.2276196

blocks.1.ln1.weight f4 [2]
00000000: ef6e 3a3f 38ef 3a3f
0.7282552 0.7302127

blocks.1.ln1.bias f4 [2]
00000000: 8ffe 8bbe cdcf 8a3e
-0.2734265 0.27111664

blocks.1.ff.0.weight f4 [2, 2]
00000000: 3b1a 303d 2014 a0be 4ce2 a0be 2d4b 20be
0.042993765 -0.31265354 -0.3142265 -0.15653677

blocks.1.ff.0.bias f4 [2]
00000000: a4c5 58be 467c 7b3f
-0.21169144 0.982365

blocks.1.ln2.weight f4 [2]
00000000: 9450 743e adbf f93c
0.23858863 0.030486906

blocks.1.ln2.bias f4 [2]
00000000: 56fa 843f a95c c43e
1.0388896 0.38351944
