anomaly_transformer_model.pth (torch, 8059 bytes, 20 tensors)

blocks.0.attention.Wq.weight f4 [2, 2]
0	0x3f8b2f4f	1.0873812
1	0xbf036f76	-0.5134195
2	0xc021ead8	-2.5299587
3	0xbf803497	-1.0016049

blocks.0.attention.Wk.weight f4 [2, 2]
0	0xbfd810f3	-1.6880172
1	0x3f9dc083	1.2324375
2	0x3fa09ad2	1.2547247
3	0x3f48aa2e	0.78384674

blocks.0.attention.Wv.weight f4 [2, 2]
0	0x3ee39ef9	0.44457224
1	0xbeaefb81	-0.34176257
2	0xbc1eb752	-0.009687262
3	0x3e829530	0.25504446

blocks.0.attention.Ws.weight f4 [1, 2]
0	0x40adedd6	5.4352827
1	0x40ac545c	5.385298

blocks.0.ln1.weight f4 [2]
0	0x3f7694cd	0.963208
1	0x3f7694ac	0.96320605

blocks.0.ln1.bias f4 [2]
0	0xbd674c26	-0.056469105
1	0x3d674c34	0.056469157

blocks.0.ff.0.weight f4 [2, 2]
0	0xbdf2b6b8	-0.11851257
1	0x3d2e9c60	0.0426296
2	0x3f0f280f	0.559205
3	0x3f1f30c3	0.6218378

blocks.0.ff.0.bias f4 [2]
0	0xbf32d851	-0.6986132
1	0xbeb65202	-0.35609442

blocks.0.ln2.weight f4 [2]
0	0x4007d1fa	2.122191
1	0x3f68413a	0.9072453

blocks.0.ln2.bias f4 [2]
0	0x3f1e3b34	0.61809087
1	0xc044eb18	-3.076849

blocks.1.attention.Wq.weight f4 [2, 2]
0	0x3ff63de8	1.9237642
1	0xbf6720e8	-0.90284586
2	0x3ff1e3bd	1.8897625
3	0xbeb309ac	-0.34968317

blocks.1.attention.Wk.weight f4 [2, 2]
0	0xbf9f03ff	-1.2423095
1	0x3fd0c132	1.6308959
2	0xbfa546a6	-1.2912185
3	0x3fb0caf6	1.3811939

blocks.1.attention.Wv.weight f4 [2, 2]
0	0x3d4e860e	0.050420813
1	0xbd6c4c72	-0.05769009
2	0x3eddcfce	0.43322605
3	0xbe6fcd2b	-0.23418109

blocks.1.attention.Ws.weight f4 [1, 2]
0	0xbf99dda7	-1.2020768
1	0xc0828540	-4.078766

blocks.1.ln1.weight f4 [2]
0	0x3f533d46	0.8251537
1	0x3f55a975	0.83461696

blocks.1.ln1.bias f4 [2]
0	0x3e2b2baa	0.16715875
1	0xbd89caba	-0.0672812

blocks.1.ff.0.weight f4 [2, 2]
0	0xbee4dc8e	-0.4469952
1	0x3f572afa	0.8404995
2	0x3efe11bb	0.49622902
3	0xbf4f22d8	-0.8091254

blocks.1.ff.0.bias f4 [2]
0	0x3ef8cd15	0.48593965
1	0x3f2afbc2	0.667904

blocks.1.ln2.weight f4 [2]
0	0x3f8a91b9	1.0825721
1	0x3e42340e	0.1896517

blocks.1.ln2.bias f4 [2]
0	0x3e85f173	0.26160774
1	0x3f02155b	0.50813836
